…
o_created_at": "2019-05-25T16:23:45Z", "homepage": "https://en.wikipedia.org/wiki/Iris_flower_data_set", "size": 20, "language": "Python", "has_wiki": true, "license": null, "open_issues_count": 0, "github_id": 188588298, "is_fork": false, "readme_text": "Iris_flower_ANN An artificial neural network which is trained on 120 samples of iris flower data set and tested on 30 samples of testing data. Iris flower dataset info ; Neural Network info ; Keras Info Modules used  Keras Numpy sklearn  Network Summary Layer (type)                 Output Shape              Param dense_1 (Dense)              (None, 16)                80  dropout_1 (Dropout)          (None, 16)                0  dense_2 (Dense)              (None, 32)                544  dropout_2 (Dropout)          (None, 32)                0  dense_3 (Dense)              (None, 3)                 99  Total params: 723 Trainable params: 723 Non-trainable params: 0 Files provided  :  Pretrained model  : IrisANN-1.0_accuracy.h5 Tesing data       : test_data_iris.npy Testing target    : test_target_iris.npy Training data     : train_data_iris.npy Training target   : train_target_iris.npy  Codes provided :  pretrained_model.py ANN_to_classifiy_Iris.py  ", "has_readme": true, "readme_language": "E
…
78b \u4f7f\u7528Keras\u8fdb\u884c\u6570\u636e\u9884\u5904\u7406\uff0c\u751f\u6210\u8bad\u7ec3\u96c6\u548c\u6d4b\u8bd5\u96c6 \u5b9a\u4e49\u8bcd\u5d4c\u5165\u77e9\u9635 \u6784\u5efa\u6a21\u578b  1. \u8bfb\u53d6\u8bed\u6599 \u8fd9\u91cc\u8bfb\u53d6\u539f\u59cb\u8bed\u6599\uff0c\u5212\u5206\u8bad\u7ec3\u96c6\u548c\u6d4b\u8bd5\u96c6\uff0c\u653e\u5728\u4e86\u540e\u9762\u9884\u5904\u7406\u90e8\u5206\u3002 texts, labels = load_raw_datasets() \u4e0b\u8868\u662f\u8f6c\u6362\u540e\u7684\u6807\u7b7e\u8868\u793a\uff1a    \u5e8f\u53f7 \u6807\u7b7e \u540d\u79f0 \u5206\u7c7b\u7f16\u7801     0 C000008 Finance [1, 0, 0, 0, 0, 0, 0, 0, 0]   1 C000010 IT [0, 1, 0, 0, 0, 0, 0, 0, 0]   2 C000013 Health [0, 0, 1, 0, 0, 0, 0, 0, 0]   3 C000014 Sports [0, 0, 0, 1, 0, 0, 0, 0, 0]   4 C000016 Travel [0, 0, 0, 0, 1, 0, 0, 0, 0]   5 C000020 Education [0, 0, 0, 0, 0, 1, 0, 0, 0]   6 C000022 Recruit [0, 0, 0, 0, 0, 0, 1, 0, 0]   7 C000023 Culture [0, 0, 0, 0, 0, 0, 0, 1, 0]   8 C000024 Military [0, 0, 0, 0, 0, 0, 0, 0, 1]    2. \u52a0\u8f7d\u9884\u8bad\u7ec3\u8bcd\u5411\u91cf\u6a21\u578b \u89e3\u538b\u4e4b\u540e\u7684\u4e2d\u6587\u9884\u8bad\u7ec3\u8bcd\u5411\u91cf\u6a21\u578b\u7684\u6587\u4ef6\u683c\u5f0f\u662f\u6587\u672c\u6587\u4ef6\uff0c\u9996\u884c\u53ea\u6709\u4e24\u4e2a\u7a7a\u683c\u9694\u5f00\u7684\u6570\u5b57\uff1a\u8bcd\u7684\u4e2a\u6570\u548c\u8bcd\u5411\u91cf\u7684\u7ef4\u5ea6\uff0c\u4ece\u7b2c\u4e8c\u884c\
…
ation layer  ReLu activation is used through out the network to provide non-linearity of the model since this is a regression network, the final output is the steering angle, thus no activation layer is attached   dropout layer  to prevent overfitting, a dropout rate of 0.5 is applied to the output of the first 2 fully connected layers    Here is the Keras network summary: _________________________________________________________________ Layer (type)                 Output Shape              Param # ================================================================= cropping2d_1 (Cropping2D)    (None, 65, 320, 3)        0 _________________________________________________________________ lambda_1 (Lambda)            (None, 65, 320, 3)        0 _________________________________________________________________ conv2d_1 (Conv2D)            (None, 31, 158, 24)       1824 _________________________________________________________________ conv2d_2 (Conv2D)            (None, 14, 77, 36)        21636 _________________________________________________________________ conv2d_3 (Conv2D)            (None, 5, 37, 48)         43248 _________________________________________________________________ conv2d_4 (Conv2D)            (None, 3, 35, 64)         27712 _________________________________________________________________ conv2d_5 (Conv2D)            (None, 1, 33, 64)         36928 _________________________________________________________________ flatten_1 (Flatten)          (None, 2112)              0 _________________________________________________________________ dense_1 (Dense)              (None, 100)               211300 _________________________________________________________________ dropout_1 (Dropout)          (None, 100)               0 _________________________________________________________________ dense_2 (Dense)              (None, 50)                5050 _________________________________________________________________ dropout_2 (Dropout)          (None, 50)                0 _________________________________________________________________ dense_3 (Dense)              (None, 10)                510 _________________________________________________________________ dense_4 (Dense)              (None, 1)                 11 ================================================================= Total params: 348,219 Trainable params: 348,219 Non-trainable params: 0 _________________________________________________________________  As shown above, there are a total of 348,219 parameters to train in the network. Model training The model get trained by observing how you drive. The simulator has two modes: training and autono
…
ad dropout layers at two points. Then I used used opencv image flip function to reduce left-right bias and thus reduce overfitting. The final step was to run the simulator to see how well the car was driving around track one. There were a few spots where the vehicle fell off the track with the initial models but with the Nvidia type model this issue was rectified. At the end of the process, the vehicle is able to drive autonomously around the track without leaving the road. 2. Final Model Architecture  Layer (type)                 Output Shape              Param # lambda_1 (Lambda)            (None, 160, 320, 3)       0  cropping2d_1 (Cropping2D)    (None, 70, 320, 3)        0  conv2d_1 (Conv2D)            (None, 33, 158, 24)       1824  activation_1 (Activation)    (None, 33, 158, 24)       0  conv2d_2 (Conv2D)            (None, 15, 77, 36)        21636  activation_2 (Activation)    (None, 15, 77, 36)        0  conv2d_3 (Conv2D)            (None, 6, 37, 48)         43248  activation_3 (Activation)    (None, 6, 37, 48)         0  conv2d_4 (Conv2D)            (None, 4, 35, 64)         27712  activation_4 (Activation)    (None, 4, 35, 64)         0  conv2d_5 (Conv2D)            (None, 2, 33, 64)         36928  activation_5 (Activation)    (None, 2, 33, 64)         0  dropout_1 (Dropout)          (None, 2, 33, 64)         0  flatten_1 (Flatten)          (None, 4224)              0  dense_1 (Dense)              (None, 128)               540800  activation_6 (Activation)    (None, 128)               0  dropout_2 (Dropout)          (None, 128)               0  dense_2 (Dense)              (None, 64)                8256  activation_7 (Activation)    (None, 64)                0  dense_3 (Dense)              (None, 10)                650  activation_8 (Activation)    (None, 10)                0  dense_4 (Dense)              (None, 1)                 11 Total params: 681,065 Trainable params: 681,065 Non-trainable params: 0 Here is a visualization of the architecture (note: visualizing the architecture is optional according to the project rubric)  3. Creation of the Training Set & Training Process To capture good driving behavior, I used the full dataset provided as sample and used data augmentation techniques such as image flipping.  To augment
…
rutable than other types of neural networks. Both filters and feature maps can be visualized. Pre-trained VGG Model We can load and summarize the VGG16 model with just a few lines of code: # Import the VGG16 model from keras.applications.vgg16 import VGG16  # Load the model model = VGG16() # Summarize the model model.summary() How to visualize filters The first step is to review the filters in the model, to see what we have to work with. Layer (type)                 Output Shape              Param # ================================================================= input_1 (InputLayer)         (None, 224, 224, 3)       0 _________________________________________________________________ block1_conv1 (Conv2D)        (None, 224, 224, 64)      1792 _________________________________________________________________ block1_conv2 (Conv2D)        (None, 224, 224, 64)      36928 _________________________________________________________________ block1_pool (MaxPooling2D)   (None, 112, 112, 64)      0 _________________________________________________________________ block2_conv1 (Conv2D)        (None, 112, 112, 128)     73856 _________________________________________________________________ block2_conv2 (Conv2D)        (None, 112, 112, 128)     147584 _________________________________________________________________ block2_pool (MaxPooling2D)   (None, 56, 56, 128)       0 _________________________________________________________________ block3_conv1 (Conv2D)        (None, 56, 56, 256)       295168 _________________________________________________________________ block3_conv2 (Conv2D)        (None, 56, 56, 256)       590080 _________________________________________________________________ block3_conv3 (Conv2D)        (None, 56, 56, 256)       590080 _________________________________________________________________ block3_pool (MaxPooling2D)   (None, 28, 28, 256)       0 _________________________________________________________________ block4_conv1 (Conv2D)        (None, 28, 28, 512)       1180160 _________________________________________________________________ block4_conv2 (Conv2D)        (None, 28, 28, 512)       2359808 _________________________________________________________________ block4_conv3 (Conv2D)        (None, 28, 28, 512)       2359808 _________________________________________________________________ block4_pool (MaxPooling2D)   (None, 14, 14, 512)       0 _________________________________________________________________ block5_conv1 (Conv2D)        (None, 14, 14, 512)       2359808 _________________________________________________________________ block5_conv2 (Conv2D)        (None, 14, 14, 512)       2359808 _________________________________________________________________ block5_conv3 (Conv2D)        (None, 14, 14, 512)       2359808 _________________________________________________________________ block5_pool (MaxPooling2D)   (None, 7, 7, 512)         0 _________________________________________________________________ flatten (Flatten)            (None, 25088)             0 _________________________________________________________________ fc1 (Dense)                  (None, 4096)              102764544 _________________________________________________________________ fc2 (Dense)                  (None, 4096)              16781312 _________________________________________________________________ predictions (Dense)          (None, 1000)              4097000 ================================================================= Total params: 138,357,544 Trainable params: 138,357,544 Non-trainable params: 0 _________________________________________________________________  The model summary printed above summarizes the output shape of each layer, e.g. the shape of the resulting feature maps. It does not five any idea of the shape of the filters (weights) i
…
 of the model capture more general features. The example below will enumerate all layers in the model and print the output size or feature map size for each convolutional layer as well as the layer index in the model. # Summarize feature map size for each conv layer from keras.applications.vgg16 import VGG16  # Load the model model = VGG16() # Summarize feature map shapes for i in range(len(model.layers)):  layer = model.layers[i]  # Check for convolutional layer  if 'conv' not in layer.name:   continue  # Summarize output shape  print(i, layer.name, layer.output.shape) Output: 1 block1_conv1 (?, 224, 224, 64) 2 block1_conv2 (?, 224, 224, 64) 4 block2_conv1 (?, 112, 112, 128) 5 block2_conv2 (?, 112, 112, 128) 7 block3_conv1 (?, 56, 56, 256) 8 block3_conv2 (?, 56, 56, 256) 9 block3_conv3 (?, 56, 56, 256) 11 block4_conv1 (?, 28, 28, 512) 12 block4_conv2 (?, 28, 28, 512) 13 block4_conv3 (?, 28, 28, 512) 15 block5_conv1 (?, 14, 14, 512) 16 block5_conv2 (?, 14, 14, 512) 17 block5_conv3 (?, 14, 14, 512)  We can use this information and design a new model that is subset of the layers in the full VGG16 model. For example, after loading the VGG model, we can define a new model that outputs a feature map from the first convolutional layer (index 1) as follows. # Redefine model to output right after the first hidden layer model = Model(inputs=model.inputs, outputs=model.
…
